app/src/main/ml/finalModel3.tflite (tflite, 280628 bytes, 12 tensors)

dense_9/bias f4 [128]
00000000: e33a 0c3c 17bd 593d e0b1 c13c c40a 7b3c
00000010: 28a0 2ebd a582 243b 1f65 06bd 6f24 fbbc
00000020: 1a22 653c 6bb9 8fbc f125 4abd 6cfe 23bc
00000030: 190a 2cbc 8373 0bbd 608e dabc 153f a23c
00000040: a684 f53b ab05 393d 55e5 fabc 76ef 383c
00000050: dcf5 2ebd 8425 18bc def5 4fb8 f532 2e3d
00000060: c6f4 76bc 26aa 833c 9856 a4bb 4e26 3a3d
00000070: 6c50 39bc 8700 603c 3deb 89bc ff0c b9bb
00000080: d45b d83c 6267 1bbd 779b 3bbd fbdd b4bc
00000090: d1f5 1cbd fe66 9cbc c4e7 93bc c3fe b7bc
000000a0: 8215 87bb 7704 8b3c 2037 5d3d 770f cfbc
000000b0: 420e 2a3d 6f37 433d 7595 41bd b92d 16bc
000000c0: 3b42 0a3c fd84 69bb c2d4 e3bc 76ff d6bb
000000d0: b847 2c3d 1e6f 8b3c f94c 05bd 7226 cb3c
000000e0: eb2f 8c3c ce22 60bc 201a 2ebb 0830 ec3b
000000f0: 2e20 163b 34f5 08bc 15ae d43c 42dd e03a
00000100: 7049 ee3a 3d23 3bbd 3d7b c23b 417c bebc
00000110: eae6 70bd 4d7f 663b 018f 61bc faa5 9abc
00000120: 68c9 ffbc 099b 713d 387b 27bc b273 b7bc
00000130: 2ca3 853c c653 08ba 3f33 733c 50b0 fcbc
00000140: 550b 82bc cb25 29bd 4f13 2b3d fa5f a3ba
00000150: 20cd 18bd 7791 29bd d5ab 3c3d a39b 59bd
00000160: 6c8e 1a3c c991 6b3d 9988 033d 3dd7 24bc
00000170: 6167 083c 6464 47bd 63ff 4dbd 7892 803d
00000180: 3e93 05bd 13c5 00bd 4d7f 2bbd 42cb 03bb
00000190: 5532 38bd 947c 88bc 6138 383d 7cd1 683d
000001a0: f16d 613d b9ae 72bd 2ab4 94bc 5f2b 3bbc
000001b0: 71e3 1dbc e8d9 c8bc f4c6 88bc 8207 4fbd
000001c0: b6ae b6bc bfc4 633b a785 b93c 101b 82bd
000001d0: ead2 f33b c8bf 10bd adb2 19bb 4694 393c
000001e0: 3f28 12bd ce72 7bbc e0f4 05bd cee1 f7bc
000001f0: f465 43bd 3857 643d c4e3 d5bc 53d0 59bd
0.008558962 0.053158846 0.023644388 0.015322391 -0.042633206 0.0025102284 -0.03281128 -0.030657021
0.013985181 -0.017544469 -0.04935259 -0.010009389 -0.010500454 -0.034045707 -0.026679218 0.01980547
0.0074926196 0.04517142 -0.030626932 0.011287561 -0.04271494 -0.009286288 -4.9581628e-05 0.042529065
-0.015073007 0.016072344 -0.0050152056 0.045446686 -0.011310678 0.013672001 -0.016835803 -0.005647301
0.026410975 -0.03794039 -0.04580256 -0.022078505 -0.038320366 -0.01909208 -0.01805485 -0.022460347
-0.004122437 0.016969902 0.05400765 -0.025275929 0.041517504 0.047660287 -0.047261674 -0.009166175
0.008438642 -0.0035632246 -0.027811412 -0.006561215 0.042060584 0.017020758 -0.03254411 0.024798606
0.017112693 -0.013680173 -0.0026565865 0.007207874 0.0022907364 -0.008359242 0.025961915 0.0017155784
0.0018179845 -0.045687903 0.0059351013 -0.023252608 -0.058813967 0.0035171092 -0.013767005 -0.018877972
-0.031223968 0.058985744 -0.010222249 -0.022394035 0.016313158 -0.00052004715 0.014843761 -0.030845791
-0.015874544 -0.041295808 0.04176646 -0.0012464516 -0.037304997 -0.04139849 0.04606231 -0.053126942
0.00943337 0.05751208 0.03211269 -0.010061082 0.008325429 -0.048679724 -0.050292384 0.06277937
-0.032611124 -0.031437945 -0.04186945 -0.0020110165 -0.044969875 -0.016660966 0.044975642 0.056840405
0.05503649 -0.05924866 -0.018152315 -0.011423915 -0.009636746 -0.024517968 -0.01669643 -0.05054427
-0.022300106 0.003475472 0.022646738 -0.06352818 0.0074409144 -0.035339147 -0.0023452446 0.011326855
-0.035682913 -0.015347196 -0.032704234 -0.03025904 -0.047704652 0.05574724 -0.026109584 -0.05317719

dense_8/bias f4 [256]
00000000: 2c79 12bd d3d5 49bc 1cea 28bd cd60 7fbc
00000010: 80ad 59bd ef22 18bc 2b3e 9cbc 828b f6bc
00000020: 2430 f9bc 5d54 3fbd 5e19 ebbc 2d5f bdbc
00000030: c4e3 6e3b 9b48 ffbc e4e1 733c 8292 82bc
00000040: a5cc 55bd e8de d5bc 3804 69bc 7f3c d4bc
00000050: 4eed 613b 32ba 42bc 334d 1bbd dc89 3fbc
00000060: a0d9 e0bc 2812 f8bb 4631 13bb ffbd 20bd
00000070: b31d 11bd c9e1 3fbc 855a 3abd 0f3c 42bd
00000080: 6b97 89b9 e5b5 4bbd e91f 82bb 6392 01bd
00000090: 7972 12bd 8214 b13c 2e8f debc 8208 cd3b
000000a0: 1486 dbbc f64b 01bd 050e 113c 920e 18bb
000000b0: 7431 aabc ae33 efbc 0bb7 a3bc d685 3bbd
000000c0: 36e0 303c ac41 c9bb c573 4bbd 0435 d6bc
000000d0: 7822 2abc fcc4 46bd 498f 34bd 6519 40bd
000000e0: d65b 3bbd ef52 a3bc a132 00bd c5cb fdbb
000000f0: 4926 00bd 6dbf 8b3c 74a5 d8bb 1cf7 70bc
00000100: b8e8 2dbd 40a6 2cbd c288 a5bc 8e89 9dbc
00000110: a424 d1bc 37d7 5abd aa11 07bd d019 68bc
00000120: 6dbf 78bd 3a7c 55bd 8267 c9bc 2d9e 8dbc
00000130: ca90 353c ad99 263d b213 b7bc 8aba 64bd
00000140: 5120 95ba 081a 8ebd cc67 1fbd dd0f 5cbc
00000150: 6668 993c 25d6 25bd 0651 e2bc d468 f8bc
00000160: 2db2 2a3b 5f7d d5bc e55f 34bd 9c5d b93c
00000170: 0f0b 74bd 4050 7ebc b772 22bd 36db 84bd
00000180: 24bf e23c 1240 a4bc d118 15bc 6dab 01bb
00000190: c891 5ebc e216 ccbc 06bd 043c c9db 423c
000001a0: fcfc 78bc cbcd abbb 9b94 f43b b3a3 153d
000001b0: 0669 423d 43fb 85bd 040f acbc 98f9 90bc
000001c0: 809d c2bc c5f7 35bd 9444 42bd cf7f 9fbc
000001d0: 1961 dcbb 8957 22bd 8cce dcbc f49c c8bc
000001e0: f177 37bd ae7d 82bd 281f bdbb c46a 09bd
000001f0: d4d0 d9bc 5a5a bc3b bb70 6dbd e08f a7bc
00000200: b611 d5bc 87d7 f2bc c30d 96bc 975c c6bc
00000210: e678 83bd 1688 6bbd 2b6f 29bd 4500 f1bc
00000220: d86a cabb 6459 083d e0a5 63bd 35fe 893d
00000230: ab5b 84bc ca19 efbc b2ef 41bd a542 ddbb
00000240: e2db 7abd 3208 3cbd 7ae7 1abd 44e2 75bb
00000250: 7909 19bd c3c2 c4bc 1e34 3bbc c203 29bd
00000260: 401f 4dbc 1398 bdbc df03 37bd 9171 e8bc
00000270: 8ac7 28bd 6ffc b2bc 4f42 26bd 9d53 323d
00000280: 8ed8 49bc afb2 b2bc 14e0 bfbc 6a8a 65bd
00000290: 288c fdbb ca4c a7bc 988e 66bc a693 34bd
000002a0: 8e46 fb3c 436b f33b 188a 02bd de95 46bc
000002b0: a41a d5bc d578 683b f309 1fbd a993 6cbc
000002c0: 6d39 9cbd 2895 64bc 3f8c dfbb 6a8b afbc
000002d0: 3ebd efbc 1d08 01bd a6f5 0c3c 31ed 2abb
000002e0: 2035 d8bc 7349 5b3b ea2e 1ebd bff3 16bd
000002f0: ca62 32bd ba7f 6dbd 0701 86bc 8018 90bc
00000300: 6498 44bd 8ce0 21bd f696 0a3b 8dce 38bc
00000310: 02c1 4cbc 429f 4cbd b75d 0cbd 8e4c 08bd
00000320: 230f 6fbd dc9d 00bd 4e9d a93a b468 c5bc
00000330: f903 82bb 0df7 803c c0bb 20bd 16e3 31bd
00000340: 7a87 19bd d594 0a3c 6dd1 0b3d cffe f5bc
00000350: d2f3 3cbc 0404 62bd 4ee7 8ebc 1df2 3abc
00000360: 9a77 aebc 4d42 50bd b4a5 983c c54b 68bd
00000370: 1e56 86bc ab9a 65bc d502 55bc 6694 ffbc
00000380: 820d 903b cedb 42bd b146 13bc ebcc b5bd
00000390: 8adc 433c fd6e 0cbc b345 62bd fb75 52bd
000003a0: 0b70 7dbd 5d67 47bb b17b be3c e8eb 13bc
000003b0: d7c0 f2bc 39a5 20bd f836 63bd d6fa 31bc
000003c0: 78fb 8cbc 6d59 84ba 1322 62bc 7c73 29bb
000003d0: 1902 0bbd 57b9 f2bc e796 59bd b8b0 51bd
000003e0: 2caa 28bd 5cc3 e5bb 6c1d ecba d996 41bd
000003f0: 07f6 463c c0bd 73bc 6cc2 c3bb 1392 1bbd
-0.03576009 -0.012319046 -0.04123889 -0.015587044 -0.053143978 -0.009285673 -0.019072613 -0.03009582
-0.030418463 -0.046711314 -0.02869862 -0.023116672 0.0036451677 -0.03116255 0.0148853995 -0.015939001
-0.052197117 -0.026107267 -0.014222197 -0.025907753 0.003447372 -0.011885213 -0.03791542 -0.011690583
-0.027447522 -0.007570524 -0.002245979 -0.039243694 -0.035428714 -0.011711546 -0.045496482 -0.047420558
-0.0002624349 -0.049734015 -0.003971089 -0.031633746 -0.0357537 0.021616224 -0.027167883 0.0062571177
-0.026797332 -0.031566583 0.00885344 -0.0023202044 -0.020775534 -0.029199447 -0.019984743 -0.045781933
0.010795644 -0.006141862 -0.049670953 -0.026148327 -0.010384195 -0.048527703 -0.04408196 -0.046899218
-0.04574188 -0.019937007 -0.031298283 -0.0077452385 -0.03128651 0.017059052 -0.0066115204 -0.014707353
-0.042458266 -0.042150736 -0.020206813 -0.01923063 -0.025530167 -0.0534279 -0.03297583 -0.01416631
-0.060729433 -0.052120425 -0.02458549 -0.017287338 0.011081884 0.0406739 -0.022348259 -0.05584196
-0.0011377429 -0.06938559 -0.038917348 -0.0134315165 0.018726539 -0.040487427 -0.027626526 -0.030323423
0.0026046142 -0.026060758 -0.044036765 0.022627644 -0.05958086 -0.015522063 -0.03966018 -0.06487124
0.027679034 -0.020050082 -0.009100155 -0.0019786016 -0.013584562 -0.024913255 0.008101707 0.011893221
-0.015197035 -0.0052430383 0.007464004 0.03653307 0.04746344 -0.06542065 -0.021003254 -0.01769714
-0.023756742 -0.044425745 -0.047428682 -0.019470124 -0.006725442 -0.03963426 -0.026953958 -0.024488904
-0.04479212 -0.06371628 -0.0057715364 -0.033549085 -0.026588835 0.0057480754 -0.057968836 -0.020454347
-0.026009422 -0.029643787 -0.018317109 -0.024214072 -0.06419544 -0.05750283 -0.041365784 -0.029419074
-0.0061772875 0.033288375 -0.055578113 0.06737939 -0.016156992 -0.029187102 -0.047347732 -0.0067523294
-0.061244853 -0.045906253 -0.03781841 -0.0037518898 -0.03736255 -0.02401865 -0.011426 -0.04126335
-0.012519658 -0.023143804 -0.044681426 -0.028374465 -0.04120592 -0.021848885 -0.04059058 0.04353677
-0.012319697 -0.021813719 -0.023422278 -0.056040205 -0.007737655 -0.020422358 -0.014072083 -0.04408612
0.030673292 0.007428558 -0.031869978 -0.012120692 -0.02601368 0.0035472412 -0.038827848 -0.014439502
-0.076281406 -0.013951577 -0.0068221386 -0.021428782 -0.029265042 -0.031501878 0.008603489 -0.0026081319
-0.02639252 0.0033460527 -0.03861896 -0.03685355 -0.043551244 -0.057983138 -0.016357912 -0.017589808
-0.047996894 -0.039520785 0.0021147109 -0.011279714 -0.0124971885 -0.049956568 -0.03426906 -0.033276133
-0.058364045 -0.031400546 0.0012940557 -0.024097778 -0.0039677587 0.015742803 -0.039241552 -0.043429457
-0.037482716 0.008458336 0.03413527 -0.030028729 -0.011532741 -0.05517961 -0.017444279 -0.011410263
-0.021297265 -0.05084448 0.0186337 -0.056712884 -0.016398486 -0.0140139265 -0.0130011635 -0.031198692
0.0043961415 -0.047572903 -0.008989022 -0.088769756 0.011954436 -0.008571384 -0.05524225 -0.051382046
-0.06187443 -0.00304266 0.02325234 -0.009028412 -0.029632969 -0.03922007 -0.055472344 -0.010863027
-0.017209753 -0.0010097452 -0.013802069 -0.0025856188 -0.033937547 -0.029629393 -0.053122427 -0.051193923
-0.041177914 -0.007011814 -0.001801414 -0.047263 0.012143618 -0.014876783 -0.0059741046 -0.037981104

dense_13/bias f4 [5]
00000000: 78cb 863e bcd0 a63c cf9c b93d 3451 24be
00000010: 049b 89be
0.2632711 0.020363204 0.09063112 -0.16046602 -0.2687608

dense_12/bias f4 [16]
00000000: 401f 12bd a458 c8bd 1832 cb3d 2fbe 8d3e
00000010: 4976 053d b65b d23d fe6e dcbd 3eac 8abd
00000020: 8fd5 cc3c 3b8d 8b3b d390 d3bc d690 9c3d
00000030: 70d2 5bbd 52d4 343c 928e 123e 1eb5 b03d
-0.035674334 -0.09782532 0.09921664 0.2768416 0.03258351 0.10271399 -0.107633576 -0.06771134
0.025004176 0.0042587793 -0.025825894 0.07644813 -0.053667486 0.011036949 0.14312199 0.08628295

dense_11/bias f4 [32]
00000000: cd4c a8bc b762 02bd 3677 533d f7b1 11bd
00000010: 817e 96bc 04a8 ffbb 6acc 21bc c2d4 e53c
00000020: 5972 c4bb 7c46 18bb 6ef3 823d 0fad b03d
00000030: 0afd 5d3d ed26 0ebd 24f4 b53c d8ab 823d
00000040: 37a7 303d 0eac 29bd 75b2 193d ad11 a23c
00000050: c30a 93bb b210 a13c ca3f 033d 6cad 8cbd
00000060: b6de 8ebc 7b7b 0bbd e1ce 193d 3314 0e3d
00000070: 0542 463c 72b4 0ebc 8ae8 7a3d 5274 5bbc
-0.020544434 -0.031832423 0.05162736 -0.03557011 -0.018370869 -0.0078020114 -0.009875396 0.028055552
-0.0059950766 -0.0023235371 0.06394087 0.08626758 0.054196395 -0.03470509 0.022211142 0.06380433
0.04312822 -0.04142385 0.037523706 0.01978382 -0.004487367 0.019661281 0.032043256 -0.06869015
-0.017440181 -0.034053307 0.03755081 0.034687232 0.012100701 -0.008710014 0.061256923 -0.013394432

dense_10/bias f4 [64]
00000000: e09f 43bd fae1 503d e3fb 213d caa2 35bd
00000010: 485b 5d3c 0bac 49bd ee75 e93c 324b 4ebd
00000020: 72ce 6bbc e91e 3f3d d7a6 cf3c c1a6 39bd
00000030: f09f 04bd df7e 573b 8236 cebc 3640 b4bc
00000040: d3a3 8cbd 3bdb 1f3c af47 773d 3fb4 9bbd
00000050: 302f a83c 1e6c 80bb 0906 d2bb 4a40 d13b
00000060: cc65 143d f604 dc3c 410f 13bd 2e7f 18bb
00000070: a89f f8bb fb13 b93d cbb5 d5bc 52d6 153d
00000080: 624e 28bc eaa0 513d bd1f f5bc c158 83bc
00000090: cc1b 5a3d 46a7 e33c 35ff 56bd a822 a13d
000000a0: 3dd6 a13d 4128 dbbc dcdf 1c3d 7f2c 4e3d
000000b0: e043 9ebc 6c8f bfbc 3f32 71bd ab64 59bc
000000c0: b179 753d 2202 17bd 67fc ffbc bcc7 153d
000000d0: 52ba 04bb 937b 1f3d dd37 8dbd 993f d23c
000000e0: 18a8 8cbd 97dd 813c 1e85 d93c b6a2 a33d
000000f0: b76f 863c d470 313d bdd6 98bc 21df ec3c
-0.04775989 0.050996758 0.03954686 -0.0443447 0.013510533 -0.04923634 0.028498616 -0.05036468
-0.014392482 0.046660338 0.02534811 -0.045325045 -0.03237909 0.0032882018 -0.025172476 -0.022003274
-0.068671845 0.009756858 0.060371097 -0.076027386 0.020530313 -0.0039191386 -0.006409411 0.0063858377
0.036229894 0.026857834 -0.03590322 -0.0023269164 -0.007587392 0.09037014 -0.026087662 0.036581345
-0.010272594 0.05117885 -0.02992236 -0.016033532 0.053249165 0.027789723 -0.05248948 0.07867938
0.07902191 -0.026752593 0.038299426 0.050335404 -0.019319475 -0.023383819 -0.05888581 -0.01326863
0.059930507 -0.03686727 -0.031248285 0.036567435 -0.0020252657 0.03893621 -0.06895421 0.025665091
-0.06867999 0.015852733 0.026552733 0.07990019 0.016410692 0.043320492 -0.018657083 0.02891499

model_2/dense_8/MatMul f4 [256, 99]
00000000: 5b2b 82bd ca09 973d 18a1 95bc 1a52 5e3c
00000010: e9a0 6f3c ea7f c0bc 3c93 95bc 9e0b f13d
00000020: 5d95 91bd 6d45 e6bd 5d2d cb3c 7137 053e
00000030: c359 b93c a683 103e 1360 1c3d 9d00 bfbd
00000040: 3886 44bd d73d 03bd 7c88 4f3d 1bb9 813d
00000050: f749 54bd ffeb 87bd 5d86 8c3c fe96 26be
00000060: 155a 173e eba1 ae3c db94 f43d f277 ee3c
00000070: bd65 0a3e f67c 56bd 8ee8 043d a237 9ebc
00000080: 49b7 03bd 19d6 72bd eabc e93d bf21 45be
00000090: 6ebc b53c f0f7 eebd 4780 92bc 9695 22bd
000000a0: 8683 14be b3a4 03be efd7 223d 6df6 c13c
000000b0: 7010 69bd 52cd e43d f1eb bfbd b28f 93bd
000000c0: 8570 d9bd efae 13be 6d69 38bc 17ad 1a3e
000000d0: 4ed0 88bd e449 6f3a 6883 a43d a876 21be
000000e0: bee6 de3d cfba 133e 9c50 cc3c 59d3 a6bd
000000f0: 7196 ae3d 7c53 babc ae5e aabc d96c 523e
00000100: 1844 b33d 2dfd 023a 8657 4a3d 1adc f7bc
00000110: 48b8 f33d fce3 21be 51d3 953d 892a 86be
00000120: 578f b2bc a0f1 ebbc 3455 ea3d ec1d 12bd
00000130: 4bbf e83d 136d 8f3e b63c d4bc 5413 9dbd
00000140: 0ecd 483e ab72 2e3e 89c6 48be 6cad afbc
00000150: 3786 143e 41d9 0ebe c14c 5abe 99e6 443e
00000160: 69d8 1b3d fbda a7bc 5844 943d a6f6 01be
00000170: 8836 60be 7869 f4bc 8f10 07be 6da6 0abe
00000180: 7cb7 1d3e d808 843d e365 f4bc bfc8 c03d
00000190: a38c 5a3e 106e f43c e519 0f3b b13a 8b3d
000001a0: 107d 033d beee fd3d a560 6e3d e34b 8ebd
000001b0: bb5c c6bd affd 383e 16d5 4b3d f677 e9bc
000001c0: 56b1 b9bc 208e 383b c7da 8bbd 63ef 213e
000001d0: 9b5e 523a 5784 3cbc 33c9 293e a35a d2bc
000001e0: e067 97bc 785b a73d 0d4d b93d 2f16 4a3d
000001f0: 3c01 3a3e 0d4d c73d 54fb 443d 9b90 523e
00000200: 76a5 3f3d 39da da3d 182c ab3d 1bfd d5bd
00000210: 4dc8 9bbd e86f 823d 62c6 f23c 42b8 8d3c
00000220: 0b46 523e d831 5e3d 8a71 883d 2bb2 86bc
00000230: 3d78 e5bd f1c0 0e3e 78eb 3cba a1dc d03c
00000240: 26e2 133e 8b42 b63c 2c6d ccbb 4abd 0e3e
00000250: 231a 533d 95a3 8dbd 1575 583e 3746 123d
00000260: f39a 73bd f37b 143e 25c2 2cbd 9734 313a
00000270: 63e8 cdba a4b3 e23d 37a2 cdbd c59c 093e
00000280: a8d8 d6bd 327a 1cbe 3092 973d 2186 9c3d
00000290: d060 83bd f918 59bd e26a b5bd d85b 0abe
000002a0: 41cd 373e 9f0e eebd fd9a 093d e267 213d
000002b0: 3f41 ad3c 44b2 313b c34d fc3b 1ec2 d33c
000002c0: 7ad1 183e c748 cbbd a28e 033e 9111 04be
000002d0: e77a 3bbc be76 83bd 0f0f c5bd b9c1 b8bd
000002e0: 9cdf e03c 8d52 8c3d f582 12bd c2f3 7e3c
000002f0: bf57 f7bb 541c 22bd 700b dcbd 7ee6 5d3d
00000300: ee5b 62bd 3025 b7bd f726 8fbd e5e9 90bd
00000310: 5e54 843d 254b fa3d 29db adbd 359c ba3b
00000320: c182 403d 7270 e6bd 3c6d 973d 5744 8abd
00000330: 7a7c 91bc df00 913d 8cf2 fb3c 5dfe f3bd
00000340: 38e7 25bd 717b 1cbd 35b1 0ebe a23f 1abd
00000350: 25a4 0e3e 4dc3 b63d 25de 8a3d 993a bf3d
00000360: d30c 95bd 882d 843d afee 0a3e 05db 5dbc
00000370: 54b5 59bd 31a9 b7bc dce6 79bc 699d f63d
00000380: 169b aebd 1f15 db3b e654 453c 9bfe 05bd
00000390: a903 783c 7ee4 6cbd 7087 6f3d 67b2 923c
000003a0: a697 2f3d 05e8 33bd 2823 b0bd ffcd bd3b
000003b0: 987e dfbd de5e c73c e9b3 f53b fd44 8abc
000003c0: 3234 f93d 20d7 bb3d 3b81 6dbb d745 cf3d
000003d0: 208b 3b3d 75bb 67bd 3d55 79bb d4d4 b4bd
000003e0: f847 83bd 4a28 203e 0488 b93c 9482 1d3e
000003f0: 092e 16be c789 263d cfd8 c2bc 12e1 153e
-0.06355926 0.07374914 -0.018265292 0.013569379 0.014625766 -0.023498494 -0.018258683 0.11769794
-0.07108567 -0.11243711 0.024801904 0.1300943 0.02262581 0.1411272 0.03817756 -0.09326289
-0.047979563 -0.032041397 0.05066727 0.06334134 -0.05182835 -0.066368096 0.017153913 -0.16268536
0.14780457 0.021317443 0.119424544 0.029109929 0.13515373 -0.052365266 0.032448344 -0.019313637
-0.032157216 -0.05928621 0.114129856 -0.19251154 0.022184577 -0.11668384 -0.017883433 -0.039693438
-0.14503297 -0.12855797 0.03975671 0.023677075 -0.05690044 0.11171974 -0.09371174 -0.07205142
-0.106171645 -0.144222 -0.011255604 0.15105091 -0.06680356 0.0009128137 0.08032876 -0.1576792
0.10883854 0.1442673 0.024940781 -0.0814578 0.08524788 -0.022744887 -0.0207971 0.20549335
0.08753222 0.00049968326 0.049399875 -0.03025632 0.11900383 -0.15809625 0.07315696 -0.26204327
-0.021796865 -0.02880174 0.114420325 -0.035673067 0.11364611 0.28012905 -0.025907855 -0.07669702
0.19609472 0.1703593 -0.19606985 -0.021444999 0.14504324 -0.13950063 -0.21318342 0.19228591
0.03804818 -0.02049016 0.07239598 -0.12691745 -0.21895802 -0.029835448 -0.1318991 -0.13540049
0.15402025 0.06446999 -0.02983374 0.09413289 0.21342711 0.029837638 0.0021835503 0.06798304
0.03210169 0.12399052 0.058197636 -0.06948068 -0.09685656 0.18065523 0.04976376 -0.028499585
-0.022667568 0.0028160885 -0.06828838 0.15813975 0.00080249616 -0.011506162 0.16580658 -0.025677985
-0.018482149 0.08171743 0.090478994 0.049337562 0.18164533 0.09731493 0.048091248 0.20562975
0.046788655 0.10686154 0.083580196 -0.10448667 -0.07606564 0.06369001 0.029635612 0.017299775
0.20534532 0.054246753 0.06662281 -0.016442379 -0.11204574 0.13940789 -0.00072067184 0.025495829
0.14441738 0.022248527 -0.0062386002 0.13939396 0.051538598 -0.069159664 0.21138413 0.035711493
-0.059473943 0.14500408 -0.04217734 0.00067598507 -0.0015709515 0.1106942 -0.10040706 0.13438709
-0.10490543 -0.15280989 0.0740093 0.076427706 -0.0641495 -0.05300233 -0.08858277 -0.13511598
0.17949392 -0.116238825 0.033595074 0.03940571 0.021149276 0.0027114311 0.0076996996 0.025849398
0.14923659 -0.099259906 0.12847379 -0.12897326 -0.011442876 -0.06419133 -0.09622013 -0.09021325
0.027450375 0.06851683 -0.03576942 0.015561046 -0.007548302 -0.039577797 -0.10744369 0.054174893
-0.055263452 -0.0894264 -0.06989854 -0.07075862 0.06461404 0.12221364 -0.08489067 0.005694891
0.046999697 -0.11251916 0.07393882 -0.06751316 -0.01775955 0.07080244 0.030755304 -0.1191375
-0.04050371 -0.03820366 -0.13934787 -0.03765834 0.13929804 0.089239694 0.06780652 0.093373485
-0.07277837 0.06453997 0.13567613 -0.013540988 -0.053151444 -0.022419544 -0.015252795 0.12041742
-0.08525674 0.0066858674 0.012044167 -0.032713514 0.015137591 -0.057835095 0.058478773 0.017907334
0.042869233 -0.043922443 -0.086004555 0.005792379 -0.10912818 0.024337228 0.0074982536 -0.0168786
0.121681586 0.09171891 -0.0036240357 0.10120743 0.045786977 -0.056575257 -0.003804519 -0.08829656
-0.06410211 0.15640369 0.022647865 0.15381843 -0.14665999 0.04065874 -0.023785023 0.14636639

model_2/dense_9/MatMul f4 [128, 256]
00000000: 28ed 1ebd 04b6 38bc d50e 3c3d 5971 0e3e
00000010: 5cf2 073c c0c6 1dbe c54e cbbd 8619 e5bd
00000020: 73e5 593d c099 b7bd a276 bfbd 44a3 d2bd
00000030: cd80 8dbd 2365 bbba db7e 0b3e 23c4 10be
00000040: 210a b83d 3ab6 8dbc 9cf3 00be 86f0 f0bd
00000050: 113d a33d 3b78 763e fc2e 5dbd 8b35 4b3e
00000060: f39d 8fbc b950 edbd a0b5 99bd 931d 653e
00000070: aed8 49bd 2b03 e6bd d4a3 4a3e 00d9 733d
00000080: e6ca 0e3b b63c 00be 192e db3a 91af ecbc
00000090: 857a 46be c108 2a3d b43b 40bd 71a6 d43d
000000a0: 6da6 28bd d02c d63d 56ce 8e3d 46a3 8c3d
000000b0: 6c60 a6bd 4b7e 3a3e 0d9e ba3d b0b7 9bbc
000000c0: d6d4 16be e41c 863d 9998 293e 04b5 fe3d
000000d0: f5d7 783d b927 e7bd 7942 09bd 0c95 1a3e
000000e0: cf6b 1c3e 5207 8fbd d2ed 883d 765b 65bd
000000f0: 73d0 24bc d109 013e 7b67 0c3c 3545 303e
00000100: b33f 04bd 6b67 d73d 515a 103e 39af 543d
00000110: c2c5 cf3d e4ed d03d f9b9 42bd c01d 7f3c
00000120: c1f1 01bc 85df c23d 66d7 00bc 2874 c3bd
00000130: dba9 21bd 395c d63c 39b7 cc3d e8a5 1a3d
00000140: f240 0abc 9cda f0bd 85bd d4bd 02c0 c1bd
00000150: 9423 d2bc 6963 afbd 18eb fd3c da1e 6ebd
00000160: 77f9 973d 17ac 273e b8f0 9abd fa0f 083e
00000170: 1c69 bc3d 0b65 e3bd 3dd9 143e 909e 0c3e
00000180: 64bf ed3d a5f1 083e 0947 1b3d 7361 7e3c
00000190: 802f 39bc 2045 3abc fe04 f2bd 1461 a63b
000001a0: 6e02 1f3e 5e36 c7bd 7ee1 18bd 64b4 f93d
000001b0: 49e5 1b3e 1e01 d23d ed72 af3d 536a 733d
000001c0: 1c3c acbd 0b5c e739 aafe a9bd 0193 d53d
000001d0: 10d5 5e3e 9334 c8bc a7a2 463e 0a4d d5bb
000001e0: a207 6ebd 70bc fcbb 6567 e9bd ce2c ccbb
000001f0: c9fe b63d 1d4a 0dbd 8186 8bbd b54c 21be
00000200: 25d6 64bd b9e3 0fbe f924 323d 2737 41bd
00000210: b3c6 d43d 254e 823d c3c6 b33d 5c29 fdbb
00000220: 0bb3 133e db5c 72bd e4ec ee3d 9b88 8e3b
00000230: 1da9 c7bd b848 61bd d821 1a3e 79c0 083e
00000240: 2655 5fbd c5f1 3fbd 8c90 91bd a610 b03d
00000250: 0383 c23c f889 c2bd 68b6 e83d 0866 863d
00000260: 91fc d13c 02a6 5bbd 15e1 bb3d 43b3 373c
00000270: 9f27 c9bc 6c39 c7bd a6ad 74bd 3f73 633d
00000280: 0ddd 5c3d eb69 f53d e2b4 8ebb a342 b2bc
00000290: 142f babd 9b5a e9bc 5fcf 3ebd 19c2 dd3d
000002a0: 984b d23d 0ecd a7bb d0e4 37ba caf0 943c
000002b0: c84a 293e 5ac3 4f3d a78b 983d 0569 ac3d
000002c0: 6c52 1a3d 911e 6a3d 7cac dd3d 8952 383c
000002d0: 6cd3 c4bb d4b6 99bc e557 93bd 9ddf 6dbd
000002e0: 3b7f a23d 46a5 2ebd 1004 493d efe8 8c3d
000002f0: c777 2a3e affe b0bb a1fe 06bd 549d ab3c
00000300: 0ad8 293e 9d1c b53d 6577 febc 13e7 3c3d
00000310: 1d25 2bbe 6dd6 733c 576d f73d 639f b73e
00000320: 4500 83bd f310 bcbd 5dba 80bd 7e0b c3bd
00000330: 4573 223e 88b0 21bd 4571 173e 8d8e 673e
00000340: f50e 3a3d 35ee 663c 05aa ed3b 8746 c43c
00000350: d7a3 423b 2fb9 163e 2177 2bbd 5b41 67bd
00000360: 3d03 c9bb c53a 813c 0d09 4fbd 228c 4d3d
00000370: 82e4 80bd e146 8b3c 231e 97bd b0d9 55bd
00000380: 64f3 0d3e ede9 2d3b 3c84 0dbd dde6 8b3d
00000390: 15db a5bd d4c7 c43d 0a9e 9f3c d2ad 8d3d
000003a0: 3585 0cbe 243c de3d 0fd1 b63d 920d 3f3d
000003b0: 4f84 3fbe f290 d8bd b165 afbd 4804 ec3d
000003c0: 311c bbbc 9831 dfbc 6218 9a3d 3150 463e
000003d0: 0e4a 973d 7c95 cd3d 68b9 cd3c 188f 7c3d
000003e0: 855a 333d 0328 5bbc dd39 fa3c cb3c 80bd
000003f0: c4db 98bc a6a6 083e 545e e4bd 40a1 1cbd
-0.03880039 -0.011273865 0.045912582 0.13910426 0.008297529 -0.15407848 -0.099271335 -0.11186509
0.053197335 -0.08964872 -0.09348799 -0.10285047 -0.069093324 -0.0014297109 0.1362261 -0.1413732
0.08986307 -0.017298806 -0.1259293 -0.11764626 0.07970632 0.24069302 -0.053999886 0.19844644
-0.01753137 -0.11587662 -0.07505345 0.22374563 -0.049278907 -0.11231073 0.19789058 0.05953312
0.0021788417 -0.1252316 0.0016722112 -0.02889231 -0.19382675 0.041512255 -0.046931937 0.10383309
-0.04117434 0.10457766 0.06972949 0.068670794 -0.0812386 0.1821224 0.09112177 -0.019008487
-0.14729628 0.06548479 0.16562118 0.1243687 0.060752828 -0.11286873 -0.03351066 0.1509592
0.152755 -0.06983818 0.066859856 -0.055995427 -0.010059464 0.12601401 0.008569594 0.172139
-0.03228731 0.10517772 0.14096953 0.051924918 0.10145141 0.10201624 -0.04754064 0.015571058
-0.007931174 0.09515289 -0.007863855 -0.095436394 -0.039468627 0.026167022 0.099958844 0.037755877
-0.008438336 -0.117604464 -0.103877105 -0.09460451 -0.02565173 -0.08563883 0.03099589 -0.05813489
0.074206285 0.16374241 -0.07565445 0.13287345 0.091997355 -0.11103257 0.14535995 0.13732362
0.116087705 0.1337343 0.03790954 0.015526163 -0.011302829 -0.01136902 -0.118173584 0.0050774906
0.1552827 -0.097271666 -0.03732442 0.1219261 0.15224184 0.10254119 0.08566842 0.05942757
-0.084099025 0.0004412833 -0.083005264 0.104284294 0.21760964 -0.024439132 0.19397984 -0.006509428
-0.058112748 -0.007712893 -0.11396674 -0.006230927 0.08935315 -0.034494508 -0.06812764 -0.15751918
-0.055868287 -0.14051713 0.04349229 -0.047171738 0.10389461 0.06362561 0.08778145 -0.0077258777
0.14423768 -0.059170585 0.11666277 0.0043497807 -0.09749053 -0.05500099 0.15051973 0.13354672
-0.054524563 -0.04686143 -0.07107648 0.085969254 0.023744112 -0.09498972 0.11362916 0.0656243
0.025633128 -0.053625114 0.0917379 0.011212173 -0.024555026 -0.09727749 -0.059735917 0.05552983
0.053921748 0.11983093 -0.004355059 -0.02176029 -0.09091011 -0.028485587 -0.046584483 0.10828037
0.102683246 -0.00512088 -0.0007014992 0.018181223 0.16532433 0.05072341 0.074485116 0.084184684
0.03767626 0.057158057 0.108239144 0.011250147 -0.0060066488 -0.018763937 -0.07194499 -0.058074582
0.079344235 -0.042638086 0.04907614 0.06880366 0.16647254 -0.0054014544 -0.032957677 0.020949043
0.16586319 0.08843348 -0.031062791 0.046118807 -0.16713376 0.014882666 0.12081402 0.3586379
-0.06396536 -0.0918292 -0.06285546 -0.09523676 0.15864284 -0.039474994 0.14789303 0.22612973
0.04542442 0.014094879 0.007252934 0.023959411 0.0029699707 0.1471908 -0.041861657 -0.056458812
-0.0061344192 0.015775094 -0.05054574 0.05018247 -0.062935844 0.017001571 -0.07378795 -0.052209556
0.13862377 0.0026537136 -0.034549937 0.06831143 -0.08098427 0.09608427 0.019484539 0.06917919
-0.1372269 0.10851315 0.089265935 0.0466438 -0.18702815 -0.10574521 -0.08564318 0.11524254
-0.022840591 -0.027245328 0.07524182 0.19366528 0.07387172 0.100382775 0.025112823 0.061659902
0.043787498 -0.013376239 0.03054517 -0.06261595 -0.01865948 0.13344821 -0.11150804 -0.038239717

model_2/dense_10/MatMul f4 [64, 128]
00000000: 4e2e 383d 1fc2 00be f23c ebbd 8ba8 a8bd
00000010: 37c6 273e 4a53 2fbd 8363 c23d 6a28 f73c
00000020: b89f 1fbe 1930 033e e3bd ddbd 35d6 ea3d
00000030: 1149 49be f67f 473e c369 e7bd 2dc3 afbc
00000040: 0a38 1cbe 70d2 efbd 9fed 2dbe 533c e13c
00000050: 3bfc 0a3e e3f2 213c f6fb 9dbd 7606 0ebe
00000060: 7a2b 973d 2478 633d a4b2 f7bd e12e cd3d
00000070: 4218 133e dfd5 ab3d 0562 e93d e59f 77bd
00000080: 6a39 13bd 54a9 e7bd 1648 d9bd 8a5e 3dbd
00000090: 3cb8 3d3e 87e1 b43c b5b7 a8bd 7c7a 0bbd
000000a0: fd61 003e bbf1 70bd 910b 8d3d 95cd 313d
000000b0: a925 0ebe a684 fd3b 1361 4b3e c3fb 343e
000000c0: 8e3f 97bc 5642 59be 2f4d febc a65f 30bd
000000d0: d9da 9a3d aee2 463e 5d6d e4bc 9d57 3dbd
000000e0: b643 bdbc 7807 c83d 3d7d a53d 4948 9b3d
000000f0: 1828 31be 8226 db3d 2f6c 243e cdb2 28be
00000100: 530c 94bd dd28 9abd 7a70 303c e6e7 f03d
00000110: 3b18 3c3e 5f60 d43d 58f9 423e ff2b 623d
00000120: 395e 143e 6137 e4bd ad81 d9bc 0272 9c3b
00000130: 7b9d 20bd 89a7 59bd 50f9 573d ffce cc3d
00000140: 4d27 0cbd 43df 4abe c797 30be a2e0 433e
00000150: f578 193e 71e2 d6bd a968 0ebe 712c af3a
00000160: 81aa acbd 67c0 03be 8b9d f23c e40e d63d
00000170: dc69 00bd 8773 ce3d 5063 3d3e 71ae 0dbe
00000180: 3d2f 0f3e 89dd 493e 4a32 853d e26b 173c
00000190: 4e82 db3d 850b 43be 09cf 3c3d ac90 23bd
000001a0: 5f0a 6abe d034 003e f149 db3d 6dfc 363d
000001b0: b60c e03d 3281 273e 35f6 483d 5f97 a03c
000001c0: 11b2 5e3e 4221 363c e1b6 263e eec3 3d3e
000001d0: e611 1c3e ea5b 43bc 9d0a d63d d5a8 963c
000001e0: 3bc2 dfbd 753c d73a e951 9f3b 3048 5dbd
000001f0: 9f47 2b3e 210b b83c ad6d 18bd c78c f23c
00000200: e92e 303e 0b00 d73c ea34 053e 5801 b83d
00000210: b0aa 52be 368f 403d 6bdc 4bbe 6b19 0a3e
00000220: 925a 1f3e 9149 6ebe bcc1 c8bb bb2f 1f3e
00000230: 1e88 1a3d f35a a1bd 8d8f 05be 9e59 683e
00000240: af09 1cbe 8487 b33d 3efc 60bc 2093 d6bd
00000250: 7e55 3e3c 4b7f 303d 1ce1 ae3d 0c4d bcbc
00000260: db71 e7bc 26d3 b93c 65ae d5bc fc08 32bd
00000270: ec17 413e a493 2bbe d002 93bd e1a2 ffbc
00000280: 0c32 0e3e 5014 6d3d dcc2 9cbe b877 c23d
00000290: 1872 9e3d 154e a5bd 29b7 e13c d755 95bd
000002a0: e3e0 a3ba f392 64be ea54 d13d 316e 8b3d
000002b0: 447c 213e 4921 c53d a28f ea3c 0435 0f3e
000002c0: 44e7 973d ace3 b1bc e69b f53c 399b 08be
000002d0: 6901 093c bcd0 9c3d 7c2d f03d 1f3e 42bc
000002e0: bbe2 ddbb 58fa 2dbe 9dde 4bbd 854f cb3d
000002f0: cd8e debc 5828 8b3e 7f62 1a3e 4d97 37bd
00000300: 6858 6dbe 3b01 123e 0d81 333e b052 2bbe
00000310: da03 cb3c f659 3cbd 4075 42be d824 8c3d
00000320: b25f ec3d 0aa4 31bd cc59 2f3e 781d ce3d
00000330: fd34 053e 992c 553e e1ec 443e b82f a4bd
00000340: e263 423c 8133 98bd 283d 453e a7c1 2e3e
00000350: 5128 b0bd bd2e 443e b410 653d 311e b5bd
00000360: 542d a63c 4e9e 04be 1d5e 92bd 07cc cc3d
00000370: 54bc 9dbd 0928 fabd 1bb6 e0bd 34d1 363d
00000380: 7a54 b3bd 0c5b 21be ef7a 09be 7051 1abd
00000390: 5523 0b3d be49 6dbc 3b43 d1bd 4ccc 283e
000003a0: 0633 b63d 417c 893d 587c e2bd e303 81bd
000003b0: 9953 2e3e 605b 36be e67a c8bc 5d07 1f3e
000003c0: a410 1c3c 9a77 a03d c841 f73d 0481 603d
000003d0: 5e46 84bd 2626 76bd 44cb 2f3e 5997 693e
000003e0: c28a 3e3e 62f5 853d 5312 0abe a2f0 c43c
000003f0: 005e 1bbe 5d7c b43d b626 ef3c 3225 d9bd
0.044966035 -0.12574051 -0.11486234 -0.08235272 0.16384207 -0.04280404 0.094916366 0.030170638
-0.15588272 0.12811317 -0.10827234 0.11466638 -0.19656779 0.19482407 -0.11299469 -0.021455372
-0.15255752 -0.1171006 -0.16985177 0.027494585 0.13572781 0.009884569 -0.07714073 -0.13869652
0.07381339 0.055534497 -0.1209462 0.10018707 0.14364722 0.08390402 0.11395649 -0.06045522
-0.035943426 -0.11311594 -0.106094524 -0.046232738 0.18527311 0.022080196 -0.08238164 -0.034052357
0.1253738 -0.058824282 0.06886972 0.04340895 -0.13881554 0.00773676 0.1986125 0.17674164
-0.018462922 -0.21216711 -0.031042663 -0.043059967 0.07561273 0.19422409 -0.02788418 -0.046226133
-0.023103576 0.097670496 0.08080528 0.07582147 -0.17300451 0.10700704 0.16056894 -0.16474457
-0.07228913 -0.07527325 0.010769004 0.11762981 0.18368618 0.10369944 0.1904043 0.05521774
0.14489068 -0.11143375 -0.026551092 0.004774333 -0.039212685 -0.05313829 0.052727997 0.10000419
-0.034217168 -0.1981173 -0.17245398 0.1912866 0.14987548 -0.10492409 -0.13907112 0.0013364685
-0.084309585 -0.12866364 0.029616138 0.10452059 -0.031350955 0.10080629 0.18494916 -0.13836075
0.13982864 0.19713415 0.065037325 0.00924203 0.10718213 -0.19047363 0.04609588 -0.03993289
-0.22855519 0.12520146 0.107074626 0.044674326 0.109399244 0.16357878 0.049062926 0.01960343
0.21747614 0.011116328 0.162807 0.18531772 0.15241203 -0.0119237695 0.10451243 0.018391052
-0.109257184 0.0016421216 0.0048620594 -0.05402392 0.1672654 0.022466244 -0.03721397 0.029608143
0.17205395 0.026245138 0.13008466 0.08984631 -0.20572925 0.047011577 -0.19908302 0.13486259
0.15561894 -0.23270251 -0.0061266106 0.15545551 0.037727468 -0.07878675 -0.13043042 0.22690436
-0.15238069 0.08766082 -0.013732014 -0.104772806 0.011617063 0.043090146 0.0853903 -0.022985958
-0.028252533 0.022683691 -0.026084134 -0.0434656 0.18856782 -0.16755539 -0.07178271 -0.031205596
0.13886279 0.0578807 -0.30617416 0.09495491 0.077366054 -0.080715336 0.027553158 -0.07291763
-0.0012502935 -0.22321682 0.10221274 0.06808127 0.1577006 0.09625489 0.028632943 0.13985068
0.07417157 -0.021715008 0.029981565 -0.13340463 0.008362153 0.076570004 0.117274255 -0.011855631
-0.006771413 -0.1699003 -0.049772847 0.099272765 -0.027167702 0.27179217 0.15076636 -0.044822026
-0.23178256 0.14258282 0.17529698 -0.16730762 0.02478211 -0.04598423 -0.1899004 0.06842965
0.1154169 -0.04336933 0.17124099 0.100642145 0.13008495 0.20817794 0.19230987 -0.08016914
0.011864634 -0.074316986 0.1926161 0.1706606 -0.0860144 0.19158454 0.055924132 -0.08843649
0.020285286 -0.12951013 -0.07146857 0.09999853 -0.07701936 -0.12214667 -0.10972234 0.044633105
-0.08756347 -0.15757388 -0.13425802 -0.03767532 0.033969242 -0.014482914 -0.10217901 0.16484183
0.08896451 0.06713153 -0.11058873 -0.062995695 0.17024077 -0.17808294 -0.024472665 0.15530153
0.009525452 0.07835312 0.12073094 0.05481054 -0.06458734 -0.060094975 0.17167383 0.22811641
0.1860762 0.06540944 -0.13483553 0.024040524 -0.15172577 0.08812783 0.029193264 -0.106027976

model_2/dense_11/MatMul f4 [32, 64]
00000000: bb09 2d3e 5dfe 1abd b292 4cbd 440a 04be
00000010: 321b 0fbe d147 3f3e 21e6 303e 5258 14be
00000020: 009b 5b3e 5d68 38bc bbb2 6d3d bb4f 8abe
00000030: 34b6 15be 5a04 773e dab6 20be a5dc 88bc
00000040: 3c3c 5a3e 197f 2f3c 49a2 75be a57e 0dbe
00000050: ef45 35bc 0c09 c23d 0525 fabd 7f99 4dbe
00000060: 322f 9bbc 3e1d 1ebe 4fc7 8c3e 6508 063d
00000070: a92c e83d 04b0 82ba d853 94ba bf7f 92be
00000080: c2c3 e4bd aafa 583c 797f 413e e750 5d3d
00000090: 4dd6 043e 9728 23bd 2d6f d4bd 69a7 cd3d
000000a0: 7acf f239 e72f 033e 8241 533e 6daf 023e
000000b0: 37d7 623e 57a7 803e be74 96bd f97b 583d
000000c0: bf37 073d 1c32 033e 4cae c6bd 4524 dc3c
000000d0: 7b58 07be 2817 133d b0aa 2fbe 5f4f 9dbe
000000e0: 2987 59be aa90 84be cf85 ac3e 9901 84be
000000f0: c769 a5bb 56f4 6abe f0b8 903b 1f8a 83be
00000100: 4337 8fbd a017 05be 6994 ebbd 96e9 ccbd
00000110: dac7 87bd 7170 92bd 168f 17bd a91e d43c
00000120: 15d0 993c 9a8a 703c 25b5 94bd 73ee 853e
00000130: e579 a13d a02f 85bd 77bf 163d 4ae8 843e
00000140: 481a 80bd b234 18be 5308 abbd c1e8 273e
00000150: bd1e a73d 5023 b73c 3545 1d3d 70a6 46be
00000160: 77d5 6abb 8757 ec3d 743f d73d fb38 ff3d
00000170: 011f 6abe 7736 46bc 855e 7abe 5556 90be
00000180: 928f 233d e910 f23d a762 63be 993c 2bbe
00000190: 11de 2b3e b181 ecbd 3466 0d3e 639a 0fbe
000001a0: 7323 483c ba08 283e b6c4 c4bd 452e 6a3c
000001b0: 2410 f3bc 3bbf 2c3d d809 983e 7d55 463e
000001c0: 5d14 b6bd b470 cf3c f63f 90bd 6551 8bbd
000001d0: 9543 f83d 34c3 5cbd f9f6 53be 0de0 05bd
000001e0: fbbe 0f3e 0043 78be 8bca 45be 5c99 4a3e
000001f0: 7908 eb3d 1353 5dbe 9dc0 023e 825e 493e
00000200: 7818 13be 1e66 f1bd 05a9 c5bd 6e79 e7bd
00000210: cd15 59bc 54bf 913d b209 c4bd 69d1 11bd
00000220: c4cd 7c3e ccd7 0dbc 43ac df3d c709 bd3d
00000230: b6e6 503e 3521 8cbd 570d 8e3c 3205 513d
00000240: b6ee 033e 5a94 283d ec46 93bd ef47 52be
00000250: 4a7d 263e 559b 88bd db78 933c 0827 62be
00000260: 26aa a5bd 4fc8 183e 4861 0bbe ba39 113c
00000270: 0236 8c3e 7b83 1c3e 205a b63d 3bdb cbbc
00000280: 64e2 2dbd b8e0 d63c 86cc 9bbc c8a7 12bc
00000290: 8bea 873e f291 ae3b ad7d 163e cea3 9b3e
000002a0: 654b b03d 91ff 753e 9298 863e 2673 bd3c
000002b0: db48 183e 58b5 7f3e ff84 573e a7c5 e93d
000002c0: 808b a23e 7edf 7d3e a849 d53c 866f 9d3e
000002d0: 24dc 733e 5f6a 803e 992e 11be f27a 4f3e
000002e0: 7928 0a3b acf2 c5bc d1d7 0abe a721 1abc
000002f0: a372 65be aedc 5b3e 20bf 3cbd 72ce edbd
00000300: 7da5 bf3c b059 223e 6dd4 7bbe e562 7c3e
00000310: 83a8 a2be e7dc 29be 7a99 443e ff06 5dbe
00000320: e495 123e 36a1 6bbd 4127 10bd 1027 41be
00000330: dbaa e1bc f748 47bc 6e72 933c 7704 a13d
00000340: 371d df3c 91fa 8cbd 6162 933d cac4 703d
00000350: 40c7 9fbd 466c 2a3c 2c70 fc3d 3f30 953d
00000360: 54ce 17be d42a d4bd de54 253e e2d9 69be
00000370: 8c57 323e 966f 33bd 26ea 0d3e 0684 e9bd
00000380: 6d27 313e 0de8 25be 0ba0 563e b57c 1abd
00000390: 31a3 be3d d723 c5bd b423 1a3d c4f9 e83d
000003a0: 8c92 95bd 5e40 f7bc 8438 a03d b2bc 2cbe
000003b0: 2131 3f3e 2dab 7abd 9ea9 78be 3d04 9e3e
000003c0: b5e3 ff3d 3d28 0d3e 063c 233e 2803 333e
000003d0: d21a 3f3e d1e7 bdbd bc4a 8b3d d4dd a33d
000003e0: 0aee 183e cb5d 2c3e 6590 4e3e 6bb5 84be
000003f0: 9f4b 193d 3fee a1bd a0f6 8dbd 7cfe 85bd
0.16898243 -0.037840236 -0.049944587 -0.12894541 -0.13975218 0.1867974 0.17275287 -0.14486817
0.21445847 -0.011255351 0.05803178 -0.27013955 -0.14620286 0.24122754 -0.15694752 -0.016706774
0.2131204 0.010711455 -0.23987688 -0.13817842 -0.011064037 0.09474382 -0.12214092 -0.20078085
-0.018943403 -0.15440843 0.2749581 0.03272285 0.11336643 -0.000997067 -0.0011316491 -0.28613088
-0.1117015 0.013243357 0.18896283 0.054032233 0.12972374 -0.03983363 -0.103727676 0.100416966
0.0004631242 0.12811242 0.20630458 0.12762232 0.2215241 0.2512767 -0.073464856 0.052852605
0.033012148 0.12812084 -0.09701213 0.026872763 -0.13217346 0.035910755 -0.17154956 -0.30724618
-0.21242966 -0.2589162 0.33695838 -0.2578247 -0.00504801 -0.2294477 0.0044165775 -0.25691316
-0.06992962 -0.12997293 -0.11502916 -0.100054905 -0.066299155 -0.07150353 -0.03700169 0.025893526
0.018775979 0.014681483 -0.07261113 0.26158485 0.07884578 -0.065032244 0.03680369 0.25958472
-0.06255013 -0.14863852 -0.08351197 0.16397382 0.0816016 0.022355705 0.03839608 -0.19399428
-0.0035832801 0.11540132 0.105101496 0.1246204 -0.2286339 -0.012097946 -0.24450119 -0.28190866
0.03993184 0.118196316 -0.22205602 -0.16722335 0.1678393 -0.11548174 0.13808519 -0.14023738
0.012215483 0.16409579 -0.09607832 0.014293258 -0.029670782 0.04217456 0.2969501 0.19368549
-0.08890603 0.025322296 -0.070434496 -0.06802634 0.12122265 -0.053897098 -0.20699681 -0.032684375
0.14037697 -0.24244308 -0.19315545 0.19785064 0.114762254 -0.21613722 0.12768789 0.19664958
-0.14364803 -0.117870554 -0.096513785 -0.11302458 -0.013249827 0.07116571 -0.09572162 -0.0356001
0.24687868 -0.008657407 0.10921528 0.092303805 0.20400509 -0.06842271 0.017340345 0.051030345
0.1288403 0.041157104 -0.07191262 -0.20535253 0.16258731 -0.06670252 0.018001964 -0.22085202
-0.08089094 0.14920162 -0.13611329 0.008863861 0.27384955 0.15284531 0.08903909 -0.02488481
-0.04245223 0.026230201 -0.019018423 -0.008951135 0.2654613 0.0053274566 0.14696379 0.3039841
0.0860813 0.24023272 0.26288277 0.023126196 0.14871542 0.24971521 0.21046828 0.11414652
0.31747055 0.24792287 0.026036099 0.30749148 0.23814446 0.25081155 -0.14177932 0.20261744
0.0021081252 -0.024163567 -0.1355889 -0.009407437 -0.22407012 0.21470901 -0.04608071 -0.11611642
0.02339434 0.15854526 -0.24592753 0.246471 -0.3176919 -0.16588174 0.19199172 -0.215847
0.14314991 -0.05752679 -0.035193685 -0.18862557 -0.02754729 -0.012163392 0.0179989 0.0786218
0.02723561 -0.06883729 0.07196499 0.058781423 -0.07801676 0.010401791 0.123260826 0.07284593
-0.14824802 -0.10359731 0.16145656 -0.22837022 0.17416209 -0.04380759 0.13858852 -0.114021346
0.17300196 -0.16201802 0.20959489 -0.037716586 0.0930847 -0.096259765 0.037631705 0.11375764
-0.07303342 -0.03018206 0.078232795 -0.16868857 0.18671085 -0.061198402 -0.24283454 0.3086261
0.124946035 0.13784881 0.15940866 0.17481673 0.18662575 -0.09272731 0.06801364 0.08001295
0.14934555 0.16832654 0.2017227 -0.2591966 0.037425634 -0.0790677 -0.069318056 -0.0654268

model_2/dense_12/MatMul f4 [16, 32]
00000000: bb93 653e 0e89 57bd 615b 183e fabf 013e
00000010: 896d 743e 15cd 2dbe e4be f9bd becd a4be
00000020: 3298 203e e716 8dbe 2c46 ec3c 11ae 1bbe
00000030: 9ce7 49ba a067 01be f8fc 20be 357a eabd
00000040: a90b b9bd c71c 5cbe eae6 a8be 9822 6abe
00000050: 66ec afbe 6041 b53e 9524 bebd 5d7e b73e
00000060: 143f f9bb 408b df3e 60d3 2ebd 6bca 39be
00000070: 0ff6 a7be b802 373d f978 943d 0aae 303e
00000080: 93e4 41be a712 683e ba49 883d bb30 af3d
00000090: 0da6 40be 78fe cd3c 6a1f 1bbd 6e52 1bbe
000000a0: 550d 243e 966c a93e f8c7 30be 58c6 be3c
000000b0: bce1 aebd 974f 623e 42db f83b c070 403e
000000c0: 5f92 fc3d 4c32 63be 48a7 333e 5373 e6be
000000d0: 7e55 cdbe e94c 023e feb4 8c3c 4ad1 ff3e
000000e0: 4be0 9dbd 8fd9 74be 4b53 80be 8765 afbe
000000f0: 9809 2bbe 77e7 56be b0a8 7dbe e60a d13d
00000100: d003 a53e 9310 a8be 36a2 bdbe 700c 5cbc
00000110: ee6b 8b3c 4d20 69bb f9cc 843e c110 b43e
00000120: 7b67 b8bc 8d96 9a3b c7ef 383e 7631 b3bd
00000130: 7d7e 743e 4f78 86bb d8db 81be fb48 993e
00000140: f503 86be f0de 7dbe 36f4 7ebd 3a7e c13e
00000150: de78 de3e 6fdd 20bc c6e7 b83d 69eb 89be
00000160: 5785 d23d 8b00 6c3e 7623 463d 52ed 0a3f
00000170: db28 8bbe 9e54 95bd 6372 85bc 3bae f43e
00000180: 4515 b1bd 19b0 19bd ba0a 7abd cdc3 a2be
00000190: fc8a cebd 9246 9ebe fb42 79bd 3c1c 28be
000001a0: cd71 823d b4b4 8cbe 30ae ff3e 0b54 ec3e
000001b0: bff0 113f abf8 cd3d a79c ee3d 8d7c b13e
000001c0: 6e68 a1bd 27c5 26be 42f2 c2be 4a0a 853e
000001d0: 5968 ed3d 2e3b abbe 6573 56be 6ddb 6bbd
000001e0: 93f9 c3bd 6fdf edbd e970 8a3a 4588 163e
000001f0: b885 c23e 1f06 7bbe f2db e83e 5569 86bd
00000200: 3cfc 243e d509 be3e 2396 afbd d9ef ac3e
00000210: 26f2 e6bd 630c 12be efa4 d43e 423b cf3e
00000220: 67f3 393e bab2 dd3e 785b d93d e8e2 59be
00000230: 1476 09be 1b9b d23e 9a0f b8be c9b5 a63e
00000240: 7916 b13e bc1c 633e 4275 8a3e 0dca 203e
00000250: af79 8b3e 9311 753e aec0 823e 5d50 98bd
00000260: 09b9 bfbe 00d8 acbe 4a11 1abe 5826 b43e
00000270: f2a8 82be 4b12 343e 22cc 483e e790 fcbd
00000280: 4404 c4bd 0ea7 893e 24c9 423e bbab fe3d
00000290: f2e2 a6be 887a a5be ba5b 743e ce81 67be
000002a0: ee7b 283e 2241 93be fd62 abbd de82 80be
000002b0: 1d37 34be c74a cbbd 1e09 1b3d abe8 513e
000002c0: 49f1 263e e67b 943e 50f3 ae3e 6612 70be
000002d0: 9ef9 bf3e 0487 b0be ba1a aa3e b952 49be
000002e0: 5215 93be 2d59 f6bc c0ec 7a3e 56e6 1a3e
000002f0: 7445 84be 7ee5 db3d edb5 b23e ffe8 843c
00000300: 5d03 923e 4248 9a3e 61af 7f3d 48b2 7c3e
00000310: 95c5 5b3e 0d1c ad3e 68e6 a93c cc52 aa3d
00000320: 13d3 bf3e 55c1 ac3d c007 cdbe 7530 2abe
00000330: 39bc dcbd 4b40 a23c d1f4 24bc cdcd 10be
00000340: c09b 1fbd dc56 373e 528b f03c 7558 60bd
00000350: 6412 88be 5f26 b93e 36ad a7be 8d4f a73e
00000360: 3637 6abc 3776 833e 7c0e 463e 2838 c7bc
00000370: bbd3 08bd e800 76be b4b8 e2be dd9b c0bc
00000380: a3df 203d 5975 163e 04d9 25bd 0f95 9c3e
00000390: 9253 333e abb1 8c3e 354c bfbe 62cd 2b3d
000003a0: 9350 9ebe baaa 83be 85e2 bebe 633e 83be
000003b0: 470d 5bbd df57 773d 8cb0 143e 1707 d3be
000003c0: e384 32be 8243 9ebe 627b 33be 6453 c0bd
000003d0: 0369 14be e28b 803e 14f5 603e a6f9 a8be
000003e0: 77a8 ac3e c528 d4bd df02 5fbe 6794 23be
000003f0: 7ad6 9cbd 3784 79be 328a 9abd d196 823e
0.22419636 -0.05262094 0.14878608 0.1267089 0.2386991 -0.16972764 -0.121946126 -0.3218822
0.15683058 -0.27556536 0.028842054 -0.1520312 -0.0007702054 -0.12637186 -0.157215 -0.114490904
-0.09035427 -0.21495353 -0.32988673 -0.22864759 -0.34360045 0.3540144 -0.09284321 0.35838595
-0.0076063965 0.43660927 -0.04268205 -0.18143623 -0.32804915 0.044680327 0.07249636 0.1725389
-0.1893485 0.22663365 0.06654687 0.085542165 -0.18813343 0.025145754 -0.037871756 -0.15168163
0.16020711 0.33090657 -0.17263782 0.023287937 -0.08539149 0.22100674 0.007594497 0.1879301
0.123326056 -0.22187155 0.17544281 -0.4500986 -0.40104288 0.12724651 0.017176148 0.49964362
-0.07708796 -0.23911117 -0.25063547 -0.34257147 -0.16702878 -0.20986734 -0.2477138 0.10207157
0.3222947 -0.32825145 -0.3703782 -0.0134307 0.017019238 -0.0035572231 0.25937632 0.35169032
-0.02251028 0.004717654 0.18060218 -0.08749668 0.23876376 -0.0041036974 -0.2536304 0.29938492
-0.26174894 -0.24792075 -0.062244616 0.37791616 0.4345159 -0.009818419 0.09028582 -0.26937416
0.10279339 0.23047082 0.048373662 0.5426837 -0.27179608 -0.0729153 -0.016289895 0.47789177
-0.08646635 -0.037521455 -0.061045386 -0.3179001 -0.10085103 -0.30913216 -0.060854893 -0.1641702
0.06369362 -0.27481616 0.49937582 0.4615787 0.57007974 0.10057195 0.11650973 0.34665337
-0.078812465 -0.16286145 -0.38075453 0.25984412 0.11592168 -0.33443588 -0.20942457 -0.057582308
-0.09569087 -0.11614882 0.0010562214 0.1470042 0.37992644 -0.24514054 0.45480305 -0.06563059
0.16111845 0.37116876 -0.08573558 0.3377674 -0.11276655 -0.14262538 0.41532084 0.40474898
0.18159257 0.4330042 0.106131494 -0.21277964 -0.1342395 0.4113396 -0.35949403 0.32560566
0.34587458 0.2217893 0.27042586 0.15702076 0.27241275 0.23932485 0.25537628 -0.07437203
-0.37445858 -0.33758545 -0.15045658 0.35185504 -0.2551952 0.17585103 0.1960912 -0.123323254
-0.09571126 0.26885265 0.19022042 0.12435099 -0.3259502 -0.32320046 0.23863116 -0.2260811
0.16453525 -0.2876063 -0.0836849 -0.25099844 -0.17599149 -0.09926372 0.03785049 0.20498912
0.1630298 0.29000777 0.34170008 -0.23444518 0.3749513 -0.3447801 0.33223516 -0.19660462
-0.28727204 -0.03007182 0.24504375 0.15126929 -0.2583424 0.107371315 0.34904423 0.016224382
0.2851819 0.30133253 0.062423114 0.24677384 0.2146209 0.33810464 0.02073975 0.083165735
0.37465724 0.08435313 -0.40044975 -0.16620047 -0.10778088 0.019806048 -0.010068134 -0.14141007
-0.038966894 0.17904228 0.029363308 -0.05477186 -0.2657653 0.36162087 -0.32749337 0.3267788
-0.01429539 0.25676128 0.19341463 -0.02431877 -0.033405047 -0.24023783 -0.44281542 -0.023511821
0.039275777 0.14693202 -0.040490165 0.30582473 0.17512348 0.274793 -0.3736283 0.041943915
-0.30920848 -0.25716192 -0.37282196 -0.25633535 -0.05347946 0.060386535 0.14520472 -0.41216347
-0.17433505 -0.3091088 -0.17527536 -0.093909055 -0.14493184 0.25106722 0.2196849 -0.33002967
0.33722278 -0.10359339 -0.21778439 -0.1597458 -0.07658096 -0.24366842 -0.0754589 0.2550569

model_2/dense_13/MatMul f4 [5, 16]
00000000: 9684 28bf 14f7 ea3d d2b3 be3e 010e 2c3e
00000010: 98ad 273c 8f2b c63d 0491 8dbe 8b21 503e
00000020: 1992 96be ac6a 10bf b8d8 98be 150e e0be
00000030: 58db 16bf a8de 963e 8b17 32be 42af dc3e
00000040: 083e d7be 3d98 183e 9314 953e 65ec 39be
00000050: 6931 b13d 8dcc ed3e 27e9 12be 566c 16be
00000060: da1a 543e 14d6 0fbf 8c51 853e deb3 adbe
00000070: a92e 963e 3f59 23bf 87af d4be 5a64 02bf
00000080: 672d 04bf ede3 133e 9a83 1cbf 2499 433e
00000090: da06 2abf e5e6 cb3d e6ee 9dbe da2c 2abf
000000a0: e2e2 a93e 2141 003e 19d9 c33c 80a0 983e
000000b0: ceff 0abf 1bab 87bd cc81 f13e 9b56 b4be
000000c0: f36a 433e 6380 263f 1c3e b5be 5473 44bf
000000d0: 53e1 bebd e5be bbbd a909 023f e47f 9fbe
000000e0: 0260 39bf 28fe 3cbd 578b c2bd 8b28 5cbe
000000f0: 9528 973e fe25 d23e 43a7 fa3d 2b33 3c3e
00000100: 1b9b e33e 89ce 8c3e db87 c9bd 429c 23bf
00000110: 5403 02bf e5a3 f2be 00cd d93e 4cb5 893e
00000120: 56bf 233d 24d0 0fbe bc59 023e f30d 313e
00000130: 2dc0 913e 183f de3e 67a0 92be 1342 a5be
-0.6582731 0.11472908 0.37246567 0.16802217 0.010234259 0.09676277 -0.276497 0.20325296
-0.2940834 -0.5641277 -0.29852843 -0.43760744 -0.5892844 0.29466748 -0.17391793 0.4310246
-0.42039514 0.14901824 0.2911726 -0.18156584 0.08652002 0.46445122 -0.14346753 -0.14689764
0.20713368 -0.5618603 0.26038778 -0.3392629 0.29332474 -0.63808054 -0.41540167 -0.50934374
-0.5163178 0.14442416 -0.6113831 0.19101387 -0.66416705 0.09956149 -0.30846328 -0.6647469
0.3318091 0.12524845 0.023907231 0.29809952 -0.54296577 -0.06624433 0.4716934 -0.35222325
0.19083767 0.6503965 -0.35398948 -0.76738477 -0.09320321 -0.091672696 0.5079599 -0.3115226
-0.7241212 -0.04614082 -0.09499233 -0.21499841 0.2952315 0.4104461 0.12238934 0.18378894
0.44454274 0.27501324 -0.098403655 -0.63910306 -0.5078633 -0.47390667 0.42539215 0.2689613
0.039977394 -0.14044243 0.12729543 0.17290477 0.2846693 0.43407512 -0.28638002 -0.32276973
